quantized_model.tflite (tflite, 105120 bytes, 2 tensors)

sequential/quant_dense/MatMul;sequential/quant_dense/LastValueQuant/FakeQuantWithMinMaxVars i1 [128, 784] scale=0.011651165 zero_point=0
0	0xfa	-0.06990699
1	0xff	-0.011651165
2	0xfc	-0.04660466
3	0xfd	-0.034953494
4	0xfc	-0.04660466
5	0xff	-0.011651165
6	0x05	0.058255825
7	0xfc	-0.04660466
8	0xfb	-0.058255825
9	0x03	0.034953494
10	0x01	0.011651165
11	0xfd	-0.034953494
12	0xf9	-0.08155815
13	0xf9	-0.08155815
14	0x03	0.034953494
15	0xfc	-0.04660466
16	0xfc	-0.04660466
17	0x02	0.02330233
18	0xfb	-0.058255825
19	0x05	0.058255825
20	0x02	0.02330233
21	0x01	0.011651165
22	0x07	0.08155815
23	0x01	0.011651165
24	0xf9	-0.08155815
25	0x05	0.058255825
26	0x06	0.06990699
27	0xff	-0.011651165
28	0xfc	-0.04660466
29	0x01	0.011651165
30	0xff	-0.011651165
31	0xfc	-0.04660466
32	0x06	0.06990699
33	0x05	0.058255825
34	0xfa	-0.06990699
35	0xf8	-0.09320932
36	0xff	-0.011651165
37	0xfe	-0.02330233
38	0x02	0.02330233
39	0x03	0.034953494
40	0xff	-0.011651165
41	0xfd	-0.034953494
42	0x03	0.034953494
43	0xfa	-0.06990699
44	0xfa	-0.06990699
45	0xfe	-0.02330233
46	0xfe	-0.02330233
47	0x00	0.0
48	0xfb	-0.058255825
49	0x06	0.06990699
50	0xf9	-0.08155815
51	0x00	0.0
52	0x02	0.02330233
53	0x06	0.06990699
54	0x02	0.02330233
55	0xfe	-0.02330233
56	0xfb	-0.058255825
57	0x04	0.04660466
58	0xfb	-0.058255825
59	0x03	0.034953494
60	0xff	-0.011651165
61	0x03	0.034953494
62	0xf5	-0.12816282
63	0xf8	-0.09320932
64	0xff	-0.011651165
65	0xe0	-0.37283728
66	0xdc	-0.41944194
67	0xe2	-0.34953496
68	0xe9	-0.2679768
69	0xe1	-0.36118612
70	0x10	0.18641864
71	0x1d	0.33788377
72	0x1e	0.34953496
73	0x24	0.41944194
74	0x2d	0.5243024
75	0x04	0.04660466
76	0x11	0.1980698
77	0x07	0.08155815
78	0xfa	-0.06990699
79	0xfc	-0.04660466
80	0x04	0.04660466
81	0xf9	-0.08155815
82	0x07	0.08155815
83	0xff	-0.011651165
84	0xff	-0.011651165
85	0x02	0.02330233
86	0xfc	-0.04660466
87	0x00	0.0
88	0xfd	-0.034953494
89	0x02	0.02330233
90	0xff	-0.011651165
91	0xe9	-0.2679768
92	0xf3	-0.15146515
93	0xf0	-0.18641864
94	0xed	-0.22137213
95	0xcc	-0.6058606
96	0xe6	-0.3029303
97	0x00	0.0
98	0x07	0.08155815
99	0x12	0.20972097
100	0x0d	0.15146515
101	0xf8	-0.09320932
102	0xf3	-0.15146515
103	0xec	-0.2330233
104	0xfa	-0.06990699
105	0x09	0.104860485
106	0x00	0.0
107	0xe0	-0.37283728
108	0xe7	-0.2912791
109	0x00	0.0
110	0xfe	-0.02330233
111	0x03	0.034953494
112	0xfa	-0.06990699
113	0xfc	-0.04660466
114	0xfd	-0.034953494
115	0x13	0.22137213
116	0x0c	0.13981397
117	0x13	0.22137213
118	0x07	0.08155815
119	0xf6	-0.11651165
120	0xee	-0.20972097
121	0xfd	-0.034953494
122	0xf4	-0.13981397
123	0xf7	-0.104860485
124	0xf8	-0.09320932
125	0xf1	-0.17476748
126	0xf3	-0.15146515
127	0x0e	0.1631163
128	0xfe	-0.02330233
129	0xf1	-0.17476748
130	0xf9	-0.08155815
131	0x02	0.02330233
132	0x01	0.011651165
133	0x08	0.09320932
134	0x0e	0.1631163
135	0x06	0.06990699
136	0xfb	-0.058255825
137	0x22	0.3961396
138	0x06	0.06990699
139	0xe8	-0.27962795
140	0x00	0.0
141	0xff	-0.011651165
142	0x03	0.034953494
143	0xe2	-0.34953496
144	0x10	0.18641864
145	0x28	0.4660466
146	0x14	0.2330233
147	0xfe	-0.02330233
148	0xfa	-0.06990699
149	0x04	0.04660466
150	0x12	0.20972097
151	0x15	0.24467446
152	0x10	0.18641864
153	0x01	0.011651165
154	0xff	-0.011651165
155	0x04	0.04660466
156	0xff	-0.011651165
157	0x08	0.09320932
158	0xfd	-0.034953494
159	0xfa	-0.06990699
160	0x00	0.0
161	0xeb	-0.24467446
162	0xff	-0.011651165
163	0xfb	-0.058255825
164	0x08	0.09320932
165	0x1b	0.31458145
166	0xfe	-0.02330233
167	0x02	0.02330233
168	0x02	0.02330233
169	0xfb	-0.058255825
170	0x15	0.24467446
171	0xc2	-0.72237223
172	0xf7	-0.104860485
173	0x22	0.3961396
174	0x11	0.1980698
175	0x08	0.09320932
176	0x0d	0.15146515
177	0x01	0.011651165
178	0x0d	0.15146515
179	0x0f	0.17476748
180	0xf2	-0.1631163
181	0x00	0.0
182	0x0d	0.15146515
183	0xfb	-0.058255825
184	0xff	-0.011651165
185	0xf9	-0.08155815
186	0xf6	-0.11651165
187	0x03	0.034953494
188	0x0b	0.12816282
189	0xf9	-0.08155815
190	0x0b	0.12816282
191	0xf7	-0.104860485
192	0x0a	0.11651165
193	0x1b	0.31458145
194	0x23	0.40779078
195	0x0d	0.15146515
196	0x06	0.06990699
197	0xdb	-0.4310931
198	0x01	0.011651165
199	0xc8	-0.6524652
200	0xd4	-0.51265126
201	0x1c	0.3262326
202	0x0c	0.13981397
203	0xe7	-0.2912791
204	0xfe	-0.02330233
205	0xf9	-0.08155815
206	0x07	0.08155815
207	0x02	0.02330233
208	0x02	0.02330233
209	0xf4	-0.13981397
210	0x0b	0.12816282
211	0x05	0.058255825
212	0xfe	-0.02330233
213	0xf5	-0.12816282
214	0xf5	-0.12816282
215	0xfe	-0.02330233
216	0x07	0.08155815
217	0xfe	-0.02330233
218	0x15	0.24467446
219	0xfd	-0.034953494
220	0x26	0.44274426
221	0x44	0.7922792
222	0x23	0.40779078
223	0x07	0.08155815
224	0x03	0.034953494
225	0xf0	-0.18641864
226	0xec	-0.2330233
227	0xcb	-0.61751175
228	0xbc	-0.7922792
229	0x01	0.011651165
230	0x13	0.22137213
231	0xf9	-0.08155815
232	0xfa	-0.06990699
233	0xfa	-0.06990699
234	0x10	0.18641864
235	0x07	0.08155815
236	0x00	0.0
237	0xec	-0.2330233
238	0xfd	-0.034953494
239	0xfd	-0.034953494
240	0xf4	-0.13981397
241	0xf5	-0.12816282
242	0xf7	-0.104860485
243	0x02	0.02330233
244	0xf1	-0.17476748
245	0xf8	-0.09320932
246	0xec	-0.2330233
247	0xff	-0.011651165
248	0x1c	0.3262326
249	0x4a	0.8621862
250	0xf2	-0.1631163
251	0xf4	-0.13981397
252	0xfc	-0.04660466
253	0xf1	-0.17476748
254	0xeb	-0.24467446
255	0xe5	-0.31458145

sequential/quant_dense_1/MatMul;sequential/quant_dense_1/LastValueQuant/FakeQuantWithMinMaxVars i1 [10, 128] scale=0.013748875 zero_point=0
0	0xa3	-1.2786454
1	0x0d	0.17873538
2	0x15	0.28872636
3	0x97	-1.4436319
4	0xf1	-0.20623313
5	0xaf	-1.1136589
6	0x21	0.45371288
7	0xbf	-0.8936769
8	0xd0	-0.65994596
9	0xd8	-0.549955
10	0x0a	0.13748875
11	0xe3	-0.39871737
12	0x19	0.34372187
13	0x22	0.46746174
14	0x0e	0.19248424
15	0xae	-1.1274078
16	0x02	0.02749775
17	0x1c	0.3849685
18	0x0d	0.17873538
19	0xff	-0.013748875
20	0xbf	-0.8936769
21	0x10	0.219982
22	0xaf	-1.1136589
23	0x16	0.30247524
24	0xf2	-0.19248424
25	0xf4	-0.16498649
26	0x1b	0.37121964
27	0xec	-0.2749775
28	0x02	0.02749775
29	0xe1	-0.4262151
30	0xe6	-0.35747075
31	0xed	-0.26122862
32	0x17	0.31622413
33	0x21	0.45371288
34	0x0e	0.19248424
35	0xfd	-0.041246623
36	0xd2	-0.63244826
37	0x05	0.06874438
38	0xf5	-0.15123762
39	0x1f	0.4262151
40	0xd9	-0.5362061
41	0x10	0.219982
42	0x0a	0.13748875
43	0x0a	0.13748875
44	0xfc	-0.0549955
45	0x03	0.041246623
46	0x06	0.082493246
47	0xea	-0.30247524
48	0x0f	0.20623313
49	0xc4	-0.8249325
50	0xcb	-0.7286904
51	0xd6	-0.5774527
52	0x14	0.2749775
53	0x16	0.30247524
54	0xd3	-0.6186994
55	0x15	0.28872636
56	0x21	0.45371288
57	0x0c	0.16498649
58	0xd6	-0.5774527
59	0x05	0.06874438
60	0xf6	-0.13748875
61	0xe5	-0.37121964
62	0x0c	0.16498649
63	0xd7	-0.5637039
64	0xcf	-0.67369485
65	0x07	0.09624212
66	0x10	0.219982
67	0xfe	-0.02749775
68	0xe8	-0.32997298
69	0xcd	-0.7011926
70	0x9c	-1.3748875
71	0xfb	-0.06874438
72	0x11	0.23373087
73	0x16	0.30247524
74	0x1f	0.4262151
75	0xe1	-0.4262151
76	0x04	0.0549955
77	0x1a	0.35747075
78	0x0c	0.16498649
79	0xfc	-0.0549955
80	0xd1	-0.64619714
81	0x14	0.2749775
82	0xc6	-0.79743475
83	0x14	0.2749775
84	0xf2	-0.19248424
85	0xf2	-0.19248424
86	0xff	-0.013748875
87	0x09	0.123739876
88	0xeb	-0.28872636
89	0xcf	-0.67369485
90	0xe3	-0.39871737
91	0xdb	-0.50870836
92	0xdc	-0.4949595
93	0xcd	-0.7011926
94	0x12	0.24747975
95	0x22	0.46746174
96	0xa3	-1.2786454
97	0xf5	-0.15123762
98	0xe3	-0.39871737
99	0x0a	0.13748875
100	0xd2	-0.63244826
101	0xf3	-0.17873538
102	0xe5	-0.37121964
103	0xa2	-1.2923943
104	0xe6	-0.35747075
105	0x1a	0.35747075
106	0xf6	-0.13748875
107	0xf6	-0.13748875
108	0xd9	-0.5362061
109	0xc9	-0.7561881
110	0x10	0.219982
111	0x1c	0.3849685
112	0x09	0.123739876
113	0xc1	-0.8661791
114	0xdc	-0.4949595
115	0xf4	-0.16498649
116	0x0a	0.13748875
117	0x13	0.26122862
118	0x06	0.082493246
119	0x18	0.32997298
120	0xef	-0.23373087
121	0x0f	0.20623313
122	0xba	-0.96242124
123	0x0e	0.19248424
124	0x13	0.26122862
125	0x10	0.219982
126	0xff	-0.013748875
127	0xee	-0.24747975
128	0x1e	0.41246626
129	0xd3	-0.6186994
130	0xdc	-0.4949595
131	0x46	0.96242124
132	0xee	-0.24747975
133	0x06	0.082493246
134	0xd8	-0.549955
135	0x16	0.30247524
136	0xee	-0.24747975
137	0xee	-0.24747975
138	0x10	0.219982
139	0xc7	-0.78368586
140	0xef	-0.23373087
141	0x05	0.06874438
142	0x13	0.26122862
143	0x05	0.06874438
144	0x18	0.32997298
145	0x1a	0.35747075
146	0xfc	-0.0549955
147	0x04	0.0549955
148	0xec	-0.2749775
149	0x07	0.09624212
150	0xd8	-0.549955
151	0xc3	-0.83868134
152	0x0e	0.19248424
153	0x01	0.013748875
154	0xde	-0.46746174
155	0xda	-0.52245724
156	0xd3	-0.6186994
157	0xb2	-1.0724123
158	0x23	0.48121062
159	0x42	0.90742576
160	0x37	0.7561881
161	0xe2	-0.41246626
162	0xf3	-0.17873538
163	0xcf	-0.67369485
164	0x03	0.041246623
165	0xfe	-0.02749775
166	0xf5	-0.15123762
167	0x20	0.439964
168	0xf4	-0.16498649
169	0x08	0.109991
170	0x15	0.28872636
171	0x18	0.32997298
172	0x17	0.31622413
173	0xf6	-0.13748875
174	0xc5	-0.81118363
175	0xd8	-0.549955
176	0x03	0.041246623
177	0x12	0.24747975
178	0x12	0.24747975
179	0x17	0.31622413
180	0xed	-0.26122862
181	0xb8	-0.989919
182	0x23	0.48121062
183	0xc2	-0.8524302
184	0xb7	-1.0036678
185	0xc4	-0.8249325
186	0x0b	0.15123762
187	0xec	-0.2749775
188	0xf7	-0.123739876
189	0x05	0.06874438
190	0xf8	-0.109991
191	0xdc	-0.4949595
192	0xfa	-0.082493246
193	0x04	0.0549955
194	0x19	0.34372187
195	0xbd	-0.92117465
196	0x10	0.219982
197	0xf6	-0.13748875
198	0xf9	-0.09624212
199	0xfc	-0.0549955
200	0xda	-0.52245724
201	0xfb	-0.06874438
202	0x0d	0.17873538
203	0x06	0.082493246
204	0xb7	-1.0036678
205	0x23	0.48121062
206	0xe7	-0.34372187
207	0xf2	-0.19248424
208	0x08	0.109991
209	0x21	0.45371288
210	0x0d	0.17873538
211	0xc1	-0.8661791
212	0xff	-0.013748875
213	0xd7	-0.5637039
214	0xef	-0.23373087
215	0xd2	-0.63244826
216	0xfb	-0.06874438
217	0xfb	-0.06874438
218	0x0f	0.20623313
219	0xb4	-1.0449145
220	0x21	0.45371288
221	0x02	0.02749775
222	0xe1	-0.4262151
223	0x0c	0.16498649
224	0xe8	-0.32997298
225	0x0e	0.19248424
226	0xcf	-0.67369485
227	0xfe	-0.02749775
228	0x14	0.2749775
229	0x1c	0.3849685
230	0xea	-0.30247524
231	0xa3	-1.2786454
232	0x50	1.09991
233	0xf1	-0.20623313
234	0xed	-0.26122862
235	0x03	0.041246623
236	0xb9	-0.9761701
237	0x00	0.0
238	0x00	0.0
239	0xe4	-0.3849685
240	0x13	0.26122862
241	0x20	0.439964
242	0x14	0.2749775
243	0xfa	-0.082493246
244	0xea	-0.30247524
245	0xdd	-0.48121062
246	0xdb	-0.50870836
247	0xe1	-0.4262151
248	0xf7	-0.123739876
249	0x18	0.32997298
250	0xf2	-0.19248424
251	0x02	0.02749775
252	0x15	0.28872636
253	0xaf	-1.1136589
254	0xc4	-0.8249325
255	0x0a	0.13748875
